…
+      "image/png": "…",
+      "text/plain": [
+       "<Figure size 800x600 with 1 Axes>"
+      ]
+     },
+     "metadata": {},
+     "output_type": "display_data"
+    },
+    {
+     "name": "stdout",
+     "output_type": "stream",
+     "text": [
+      "-------------------------------------------\n",
+      "-------------------------------------------\n",
+      "Dataset:  carls\n",
+      "Target Embeddings:  ChemNet\n",
+      "-------------------------------------------\n",
+      "-------------------------------------------\n",
+      "Encoder(\n",
+      "  (encoder): Sequential(\n",
+      "    (0): Linear(in_features=1676, out_features=1548, bias=True)\n",
+      "    (1): LeakyReLU(negative_slope=0.01, inplace=True)\n",
+      "    (2): Linear(in_features=1548, out_features=1420, bias=True)\n",
+      "    (3): LeakyReLU(negative_slope=0.01, inplace=True)\n",
+      "    (4): Linear(in_features=1420, out_features=1292, bias=True)\n",
+      "    (5): LeakyReLU(negative_slope=0.01, inplace=True)\n",
+      "    (6): Linear(in_features=1292, out_features=1164, bias=True)\n",
+      "    (7): LeakyReLU(negative_slope=0.01, inplace=True)\n",
+      "    (8): Linear(in_features=1164, out_features=1036, bias=True)\n",
+      "    (9): LeakyReLU(negative_slope=0.01, inplace=True)\n",
+      "    (10): Linear(in_features=1036, out_features=908, bias=True)\n",
+      "    (11): LeakyReLU(negative_slope=0.01, inplace=True)\n",
+      "    (12): Linear(in_features=908, out_features=780, bias=True)\n",
+      "    (13): LeakyReLU(negative_slope=0.01, inplace=True)\n",
+      "    (14): Linear(in_features=780, out_features=652, bias=True)\n",
+      "    (15): LeakyReLU(negative_slope=0.01, inplace=True)\n",
+      "    (16): Linear(in_features=652, out_features=512, bias=True)\n",
+      "  )\n",
+      ")\n",
+      "-------------------------------------------\n",
       "-------------------------------------------\n"
      ]
+    },
+    {
+     "data": {
+      "application/vnd.jupyter.widget-view+json": {
+       "model_id": "6c8a259e8e4c43f9bfb8d524ecdeea30",
+       "version_major": 2,
+       "version_minor": 0
+      },
…
    Validation loss: 1.307596943115445e-05
 -------------------------------------------
+Saved best model at epoch 114
+Epoch[120/500]:
+   Training loss: 7.78272925703775e-06
+   Validation loss: 9.615563132178037e-06
+-------------------------------------------
+Validation loss has not improved in 10 epochs. Stopping training at epoch 124.
+-------------------------------------------
+-------------------------------------------
+Dataset:  IMS
+Target Embeddings:  ChemNet
+-------------------------------------------
+-------------------------------------------
+Encoder(
+  (encoder): Sequential(
+    (0): Linear(in_features=1676, out_features=1548, bias=True)
+    (1): LeakyReLU(negative_slope=0.01, inplace=True)
+    (2): Linear(in_features=1548, out_features=1420, bias=True)
+    (3): LeakyReLU(negative_slope=0.01, inplace=True)
+    (4): Linear(in_features=1420, out_features=1292, bias=True)
+    (5): LeakyReLU(negative_slope=0.01, inplace=True)
+    (6): Linear(in_features=1292, out_features=1164, bias=True)
+    (7): LeakyReLU(negative_slope=0.01, inplace=True)
+    (8): Linear(in_features=1164, out_features=1036, bias=True)
+    (9): LeakyReLU(negative_slope=0.01, inplace=True)
+    (10): Linear(in_features=1036, out_features=908, bias=True)
+    (11): LeakyReLU(negative_slope=0.01, inplace=True)
+    (12): Linear(in_features=908, out_features=780, bias=True)
+    (13): LeakyReLU(negative_slope=0.01, inplace=True)
+    (14): Linear(in_features=780, out_features=652, bias=True)
+    (15): LeakyReLU(negative_slope=0.01, inplace=True)
+    (16): Linear(in_features=652, out_features=512, bias=True)
+  )
+)
+-------------------------------------------
+-------------------------------------------
\ No newline at end of file
diff --git a/models/wandb/run-20241214_094644-7n6iyyxd/files/wandb-summary.json b/models/wandb/run-20241214_094644-7n6iyyxd/files/wandb-summary.json
index f221989c..bfed6ab7 100644
--- a/models/wandb/run-20241214_094644-7n6iyyxd/files/wandb-summary.json
…
