…
-      "text/plain": [
-       "<Figure size 800x600 with 1 Axes>"
-      ]
-     },
-     "metadata": {},
-     "output_type": "display_data"
-    },
-    {
-     "name": "stdout",
-     "output_type": "stream",
-     "text": [
-      "-------------------------------------------\n",
-      "-------------------------------------------\n",
-      "Dataset:  IMS\n",
-      "Target Embeddings:  OneHot Encoding\n",
-      "-------------------------------------------\n",
-      "-------------------------------------------\n",
-      "IMStoOneHotEncoder(\n",
-      "  (encoder): Sequential(\n",
-      "    (0): Linear(in_features=1676, out_features=1491, bias=True)\n",
-      "    (1): LeakyReLU(negative_slope=0.01, inplace=True)\n",
-      "    (2): Linear(in_features=1491, out_features=1306, bias=True)\n",
-      "    (3): LeakyReLU(negative_slope=0.01, inplace=True)\n",
-      "    (4): Linear(in_features=1306, out_features=1121, bias=True)\n",
-      "    (5): LeakyReLU(negative_slope=0.01, inplace=True)\n",
-      "    (6): Linear(in_features=1121, out_features=936, bias=True)\n",
-      "    (7): LeakyReLU(negative_slope=0.01, inplace=True)\n",
-      "    (8): Linear(in_features=936, out_features=751, bias=True)\n",
-      "    (9): LeakyReLU(negative_slope=0.01, inplace=True)\n",
-      "    (10): Linear(in_features=751, out_features=566, bias=True)\n",
-      "    (11): LeakyReLU(negative_slope=0.01, inplace=True)\n",
-      "    (12): Linear(in_features=566, out_features=381, bias=True)\n",
-      "    (13): LeakyReLU(negative_slope=0.01, inplace=True)\n",
-      "    (14): Linear(in_features=381, out_features=196, bias=True)\n",
-      "    (15): LeakyReLU(negative_slope=0.01, inplace=True)\n",
-      "    (16): Linear(in_features=196, out_features=8, bias=True)\n",
-      "  )\n",
-      ")\n",
-      "-------------------------------------------\n",
-      "-------------------------------------------\n"
-     ]
-    },
-    {
-     "data": {
-      "application/vnd.jupyter.widget-view+json": {
-       "model_id": "ead213f1d6174ec4a666a9a8391881b5",
-       "version_major": 2,
-       "version_minor": 0
-      },
…
-       "<Figure size 800x600 with 1 Axes>"
-      ]
-     },
-     "metadata": {},
-     "output_type": "display_data"
-    },
-    {
-     "name": "stdout",
-     "output_type": "stream",
-     "text": [
-      "Saved best model at epoch 1\n",
-      "-------------------------------------------\n",
-      "-------------------------------------------\n",
-      "Dataset:  MNIST\n",
-      "Target Embeddings:  OneHot Encodings\n",
-      "-------------------------------------------\n",
-      "-------------------------------------------\n",
-      "MNISTtoOneHotEncoder(\n",
-      "  (encoder): Sequential(\n",
-      "    (0): Linear(in_features=784, out_features=698, bias=True)\n",
-      "    (1): LeakyReLU(negative_slope=0.01, inplace=True)\n",
-      "    (2): Linear(in_features=698, out_features=612, bias=True)\n",
-      "    (3): LeakyReLU(negative_slope=0.01, inplace=True)\n",
-      "    (4): Linear(in_features=612, out_features=526, bias=True)\n",
-      "    (5): LeakyReLU(negative_slope=0.01, inplace=True)\n",
-      "    (6): Linear(in_features=526, out_features=440, bias=True)\n",
-      "    (7): LeakyReLU(negative_slope=0.01, inplace=True)\n",
-      "    (8): Linear(in_features=440, out_features=354, bias=True)\n",
-      "    (9): LeakyReLU(negative_slope=0.01, inplace=True)\n",
-      "    (10): Linear(in_features=354, out_features=268, bias=True)\n",
-      "    (11): LeakyReLU(negative_slope=0.01, inplace=True)\n",
-      "    (12): Linear(in_features=268, out_features=182, bias=True)\n",
-      "    (13): LeakyReLU(negative_slope=0.01, inplace=True)\n",
-      "    (14): Linear(in_features=182, out_features=96, bias=True)\n",
-      "    (15): LeakyReLU(negative_slope=0.01, inplace=True)\n",
-      "    (16): Linear(in_features=96, out_features=8, bias=True)\n",
-      "  )\n",
-      ")\n",
-      "-------------------------------------------\n",
-      "-------------------------------------------\n"
-     ]
-    },
-    {
-     "data": {
-      "application/vnd.jupyter.widget-view+json": {
-       "model_id": "2a834917f8dd4a73b450b0f171757772",
-       "version_major": 2,
-       "version_minor": 0
-      },
…
